model/model.pth (torch, 17103 bytes, 4 tensors)

linear1.weight f4 [256, 11]
0	0x3da343f0	0.079719424
1	0xbd25d2c0	-0.04048419
2	0x3d9746c4	0.07386544
3	0x3e2f99f9	0.1714858
4	0x3e1a6cb6	0.15080532
5	0xbe340e16	-0.17583498
6	0x3e62e7c4	0.22158724
7	0xbe71692b	-0.23575275
8	0xbe478b47	-0.19486724
9	0xbcaac6ff	-0.020846842
10	0x3b803040	0.003912002
11	0x3dc86a58	0.097859085
12	0xbc2328a0	-0.009958416
13	0x3e081ade	0.13291499
14	0xbe8b0ab6	-0.2715661
15	0x3df20d2d	0.11818919
16	0xbe0a5781	-0.13509943
17	0xbe0e381c	-0.13888592
18	0xbe961413	-0.2931219
19	0xbd3319ac	-0.043725654
20	0x3daa970c	0.08329591
21	0xbe5694d5	-0.20955212
22	0xbe2859d8	-0.16440523
23	0xbe4bc685	-0.19899948
24	0x3e898d13	0.26865444
25	0xbcc1fdc5	-0.023680577
26	0xbdbdac50	-0.092613816
27	0x3ddb7066	0.10714798
28	0xbd76478b	-0.060126822
29	0x3e6a0c54	0.22856265
30	0x3d89304c	0.06698665
31	0x3db8c421	0.090217836
32	0x3e506bb1	0.20353581
33	0xbe4087b8	-0.18801773
34	0x3e89eb26	0.26937217
35	0x3e5dcf4f	0.21661113
36	0x3e65d182	0.22443202
37	0x3da4ff42	0.08056499
38	0x3dd89076	0.10574429
39	0xbe17f2ef	-0.14838766
40	0x3e82df71	0.25561097
41	0xbe8b7328	-0.27236295
42	0xbe9e6175	-0.3093373
43	0x3e973248	0.2953055
44	0x3e59ad47	0.21257506
45	0x3e6b3be9	0.22972073
46	0x3d523200	0.051317215
47	0xbe4e1e6c	-0.20128793
48	0xbe78dc79	-0.24302854
49	0xbe90265c	-0.28154266
50	0x3e5d6823	0.21621756
51	0xbe9e5c96	-0.30930012
52	0xbe4c0c83	-0.19926648
53	0x3e81f23f	0.25380132
54	0xbdcf1151	-0.10110725
55	0xbd3aeeea	-0.045638002
56	0xbde1a94a	-0.110186175
57	0x3e19a273	0.15003376
58	0x3d808b22	0.062765375
59	0xbdc953e8	-0.09830457
60	0x3e3be107	0.1834756
61	0xbe4094fd	-0.18806835
62	0x3d02d4ed	0.031941343
63	0x3e82e78c	0.2556728
64	0xbd850c01	-0.0649643
65	0x3d7065d5	0.058690865
66	0xbe538b8c	-0.20658702
67	0xbe81c65e	-0.25346655
68	0x3ddc0a68	0.10744172
69	0x3d6f9300	0.0584898
70	0x3dd026f4	0.1016368
71	0xbd5c22a8	-0.05374399
72	0x3df46e8c	0.11935148
73	0xbe58f5ac	-0.21187466
74	0xbe0563f3	-0.13026409
75	0x3e420ebc	0.18950933
76	0xbe0016cd	-0.12508698
77	0x3bb64215	0.005562077
78	0xbe4943e8	-0.1965481
79	0xbe7f649b	-0.24940722
80	0x3e83d29d	0.25746623
81	0xbdff8c32	-0.12477912
82	0xbe17ee25	-0.14836939
83	0x3df64f54	0.120268494
84	0xbc0f2600	-0.008737087
85	0x3c5924a0	0.013253361
86	0xbdb4f15b	-0.088350974
87	0xbe6806c1	-0.22658826
88	0x3e90c219	0.28273085
89	0xbe440d6b	-0.19145744
90	0xbe2a15e1	-0.16609909
91	0xbe7c9c8a	-0.2466909
92	0x3e95feb6	0.29295892
93	0xbe78ca08	-0.24295819
94	0x3d59e8c5	0.053200502
95	0x3e87e356	0.2654063
96	0xbda962fb	-0.08270832
97	0xbe5e20b5	-0.21692164
98	0xbde6814e	-0.11255132
99	0x3de3397d	0.110949494
100	0x3e83ef1a	0.25768358
101	0x3e7c13c9	0.24616922
102	0xbe93f89a	-0.28900605
103	0x3dbc3a53	0.09190812
104	0xbe06612f	-0.1312301
105	0xbe18d527	-0.14925061
106	0xbd8b53d9	-0.06803102
107	0x3e9168fd	0.28400412
108	0xbdf5bc5a	-0.11998816
109	0xbd1a98c2	-0.037743337
110	0xbe728192	-0.2368224
111	0x3d843f6f	0.064574115
112	0x3e69369c	0.22774738
113	0x3dbb3a3b	0.09141966
114	0x3cf78fb7	0.030219896
115	0x3dfd054a	0.123545244
116	0xbe7937bf	-0.24337672
117	0x3e339538	0.17537391
118	0xbe57c35a	-0.21070614
119	0x3e1f471a	0.15554467
120	0x3c94bf80	0.01815772
121	0xbdd13efe	-0.10217093
122	0x3e45fbd3	0.19334345
123	0x39040800	0.00012591481
124	0x3e2adc5e	0.16685626
125	0xbdcfeab4	-0.10152188
126	0xbdc59a7a	-0.09648605
127	0x3ce02ee5	0.027366111
128	0xbd625bda	-0.055263378
129	0xbe5077d8	-0.20358217
130	0xbe2451f3	-0.16046886
131	0x3e2574d1	0.16157843
132	0x3e962a00	0.29328918
133	0xbcf664f7	-0.03007744
134	0xbde1bab9	-0.11021943
135	0x3e89cd39	0.26914385
136	0x3b1ef06f	0.0024252196
137	0xbe7549b0	-0.23953891
138	0xbe8dcebb	-0.27696785
139	0xbe8091f4	-0.25111353
140	0x3ea4fc35	0.3222367
141	0xbde8f40a	-0.11374672
142	0x3ea1a51d	0.31571284
143	0xbdb7ae95	-0.08968846
144	0x3de8b949	0.11363465
145	0x3e90c3b8	0.28274322
146	0x3e041108	0.12897122
147	0xbe96160f	-0.29313704
148	0xbdaba8c6	-0.083818
149	0x3e8be9e0	0.2732687
150	0xbe15ef67	-0.14642106
151	0x3e34765a	0.17623273
152	0x3da39e2e	0.07989155
153	0xbd2bc609	-0.041936908
154	0xbe86da6b	-0.26338515
155	0xbd0d2000	-0.034454346
156	0xbe4c2d7d	-0.19939227
157	0xbe5a1212	-0.21295956
158	0xbe77cf66	-0.2420021
159	0x3da9a524	0.08283451
160	0xbe15308c	-0.145693
161	0xbcd859b0	-0.026409954
162	0x3e260738	0.16213691
163	0xbd808bd0	-0.06276667
164	0xbe4647bf	-0.19363306
165	0x3bc7394b	0.006079828
166	0x3de8cd09	0.11367232
167	0x3e563566	0.20918807
168	0xbde08430	-0.10962713
169	0x3bd16fe7	0.0063915136
170	0x3e31564b	0.17318074
171	0xbce64538	-0.028109178
172	0xbcc6752c	-0.024225794
173	0x3dc7bb9c	0.097525805
174	0x3e227e8f	0.15868591
175	0x3e08380a	0.13302627
176	0xbcfebe0b	-0.031096479
177	0x3e9a8ed2	0.30187088
178	0xbdcbdc94	-0.09954181
179	0x3d293908	0.041314155
180	0x3ce89850	0.02839294
181	0x3e3c83e5	0.18409689
182	0xbcb92a61	-0.022603216
183	0xbe81154d	-0.25211564
184	0x3b604117	0.0034218484
185	0xbe2d3023	-0.16912894
186	0xbe86d7ad	-0.26336423
187	0xbe3c241e	-0.18373153
188	0xbcd16a10	-0.02556327
189	0xbe09b524	-0.13448006
190	0xbe48cd50	-0.1960957
191	0x3df7af6d	0.12094007
192	0xbe2b2e60	-0.1671691
193	0xbe2a1dee	-0.1661298
194	0xbe1b3ed0	-0.1516068
195	0x3e6d60f3	0.23181514
196	0xbd4bbfe7	-0.04974356
197	0x3da3526e	0.079747066
198	0xbd6ec538	-0.05829355
199	0x3e73cd60	0.23808813
200	0xbd7377c0	-0.059440374
201	0x3e8629fa	0.262039
202	0xbdfd96ef	-0.12382304
203	0xbe61b805	-0.22042854
204	0x3e2a0613	0.1660388
205	0x3e239c18	0.15977514
206	0x3e95cd12	0.2925802
207	0xbe804317	-0.25051185
208	0xbcfbcbea	-0.030736882
209	0xbbb25827	-0.0054426375
210	0xbdc12088	-0.09430033
211	0x3d8ca910	0.068681836
212	0x3cbc8dcb	0.02301683
213	0xbe7b3c6c	-0.24534768
214	0x3d4da1bd	0.050203074
215	0x3d507dfd	0.0509014
216	0xbe9535ed	-0.29142705
217	0x3dc5b26e	0.096531734
218	0x3e65c41e	0.22438094
219	0xbe3d3087	-0.18475543
220	0x3e929797	0.2863128
221	0x3e68e2fe	0.2274284
222	0x3e519af3	0.20469265
223	0xbe9210e1	-0.28528503
224	0xbbb3a271	-0.005482011
225	0x3e7b1c8a	0.24522606
226	0x3e4e5787	0.20150577
227	0xbdd198b7	-0.10234206
228	0x3db34e6d	0.08755193
229	0x3e5f8575	0.21828254
230	0x3e0c489f	0.13699578
231	0xbe670fdf	-0.22564648
232	0x3d748d32	0.059704967
233	0xbdf0530e	-0.117345914
234	0xbe65f4b7	-0.22456633
235	0xbd831b1b	-0.06401654
236	0xbe291534	-0.16511995
237	0x3e75c8fa	0.24002448
238	0xbb924b2f	-0.004464529
239	0xbe2dcb97	-0.16972195
240	0xbe6de6f3	-0.23232631
241	0xbe01e939	-0.12686624
242	0xbd28be36	-0.041197024
243	0xbc284874	-0.01027118
244	0x3e95491d	0.29157344
245	0x3e0c8c76	0.13725457
246	0x3d9bb8de	0.0760362
247	0xbc539de4	-0.012916062
248	0x3e6955b6	0.22786602
249	0xbd6695bc	-0.05629514
250	0xbe83593e	-0.25654024
251	0x3e612f7b	0.21990769
252	0xbe022167	-0.12708054
253	0x3e8dedbc	0.2772044
254	0xbe333057	-0.17498909
255	0x3ca6eb49	0.020375865

linear1.bias f4 [256]
0	0xbe18212d	-0.14856406
1	0xbdfcd204	-0.12344745
2	0xbe9a001f	-0.30078217
3	0xbe270077	-0.16308771
4	0x3e279b9e	0.16367957
5	0x3e5883e3	0.21144061
6	0xbe97c31d	-0.29641047
7	0xbe763b54	-0.2404607
8	0xbe500d1b	-0.203175
9	0xbc73378a	-0.0148447845
10	0x3e8ae868	0.27130437
11	0xbe55bfc3	-0.20873933
12	0xbe759866	-0.23983917
13	0xbe88545b	-0.26626858
14	0xbe8c1a34	-0.2736374
15	0xbe486008	-0.19567883
16	0x3e98705f	0.29773232
17	0xbe317894	-0.17331153
18	0xbe171013	-0.14752226
19	0x3c412251	0.011787967
20	0x3cd072f6	0.025445443
21	0x3d842e1d	0.06454108
22	0x3e1c68c1	0.15274335
23	0xbe79faf4	-0.24412137
24	0x3e18c952	0.14920548
25	0x3e80f3fb	0.25186142
26	0x3d921483	0.071328185
27	0x3e141c1c	0.14463848
28	0xbe5f65f7	-0.2181624
29	0xbe5ea5f7	-0.21742998
30	0x3e647750	0.22311139
31	0x3d44f7cb	0.048087876
32	0xbd4abc18	-0.049495786
33	0x3e8244da	0.25443155
34	0xbe02d9cc	-0.12778395
35	0xbde0a130	-0.10968244
36	0xbcf874c4	-0.030329116
37	0xbd40214c	-0.046906754
38	0x3d63c5ac	0.055608436
39	0x3d866928	0.06563026
40	0x3ceea2f6	0.02913044
41	0xbe01e35c	-0.12684387
42	0x3d385343	0.04500128
43	0x3cdbed51	0.02684656
44	0x3e37dfab	0.17956416
45	0x3c81cc78	0.015844569
46	0xbe5baf43	-0.21453576
47	0x3d38ef96	0.045150362
48	0xbe9b81e9	-0.3037255
49	0x3e62403b	0.22094814
50	0xbe3a0a4e	-0.18167993
51	0x3e8c6167	0.27418062
52	0xbe8356d5	-0.25652185
53	0xbe9bf4b1	-0.30460122
54	0x3e750836	0.23928913
55	0xbd95f03b	-0.07321211
56	0xbe0d452a	-0.13795915
57	0x3c575dea	0.013144949
58	0x3e51aea9	0.20476784
59	0xbe582b74	-0.21110326
60	0x3d01a354	0.031649902
61	0x3e9898cc	0.29804075
62	0xbea32d45	-0.31870475
63	0xbe7747f4	-0.24148542
64	0x3d0bc8d9	0.03412709
65	0x3e177804	0.14791876
66	0xbd80b8c2	-0.0628524
67	0xbd354157	-0.044251766
68	0x3d6320c5	0.055451173
69	0x3d70fc81	0.058834556
70	0x3dfe0bb3	0.12404575
71	0xbe561c71	-0.20909287
72	0xbd912c59	-0.07088537
73	0x3e0704db	0.13185446
74	0xbe16e53b	-0.14735882
75	0x3ddb1487	0.10697275
76	0x3e223646	0.15841016
77	0x3e830916	0.2559287
78	0x3debd113	0.11514487
79	0xbe0a4b91	-0.13505389
80	0xbddbb8df	-0.10728621
81	0xbbb07c11	-0.0053858836
82	0x3e16859f	0.1469941
83	0x3da66122	0.08123995
84	0xbe584387	-0.2111951
85	0x3e2da143	0.16956048
86	0xbe1b96e6	-0.15194282
87	0xbdb2cb3d	-0.08730171
88	0x3e99d02a	0.3004163
89	0xbd824df6	-0.06362526
90	0xbe13601e	-0.14392135
91	0xbe8e6e97	-0.27818748
92	0xbd9b57c8	-0.07585102
93	0xbe319ce6	-0.17345008
94	0xbe80f7f4	-0.25189173
95	0x3e18af4f	0.14910625
96	0xbdcc95cc	-0.09989509
97	0xbe10d75d	-0.14144655
98	0xbe9ff97b	-0.31245026
99	0x3ea5d2fb	0.32387528
100	0xbe59d9ef	-0.21274541
101	0xbdc6af6c	-0.09701428
102	0x3e36ac85	0.17839248
103	0x3e9647be	0.2935161
104	0x3e39e849	0.18155016
105	0xbe107169	-0.14105763
106	0xbd8291e9	-0.063754864
107	0xbe6adc66	-0.22935638
108	0xbd75fc2f	-0.060054954
109	0xbe4c0184	-0.19922453
110	0xbe1e1481	-0.15437509
111	0xbe96dfd7	-0.2946765
112	0x3e9894ae	0.29800934
113	0xbd226721	-0.039649133
114	0xbde95d84	-0.1139479
115	0xbcb89ea5	-0.022536585
116	0xbe8a43e2	-0.27004915
117	0x3d17b2f4	0.037035897
118	0x3e983da0	0.29734516
119	0x3cf48efe	0.02985334
120	0x3d9f7d96	0.077876255
121	0xbe7cdcb1	-0.24693562
122	0x3d883f26	0.066526696
123	0xbe1c7f06	-0.1528283
124	0x3e360819	0.17776527
125	0x3e7a74e5	0.24458654
126	0x3e5bcd53	0.21465044
127	0x3e0329bc	0.12808889
128	0xbd95f6a8	-0.073224366
129	0xbe685346	-0.22688016
130	0x3e88e496	0.26736897
131	0x3d9081d8	0.07056016
132	0xbdb3f0b5	-0.087861456
133	0xbe618286	-0.22022447
134	0x3df9c3da	0.12195559
135	0x3e4d3422	0.20039418
136	0x3e3959a6	0.18100604
137	0xbda37d61	-0.079828985
138	0xbe5e57a2	-0.21713117
139	0x3e61dd46	0.22057065
140	0xbd81053e	-0.06299828
141	0xbe94f678	-0.2909429
142	0x3e01e18b	0.12683694
143	0xbd6de34a	-0.058078088
144	0xbe1f0906	-0.15530786
145	0xbe86670a	-0.26250488
146	0x3cc46c00	0.02397728
147	0x3e8cffd8	0.27538943
148	0xbe135315	-0.14387162
149	0x3e654dfa	0.22393027
150	0x3e806927	0.25080225
151	0x3d924be8	0.07143384
152	0xbe0ac866	-0.13553008
153	0xbe3be3a5	-0.18348558
154	0x3cc6098b	0.024174472
155	0x3e14e347	0.14539824
156	0xbe7ebeea	-0.24877515
157	0x3d19a80a	0.03751377
158	0xbe335d39	-0.1751603
159	0xbc538e80	-0.012912393
160	0xbdf253db	-0.118324004
161	0x3e8dc4c3	0.2768918
162	0x3db2f862	0.087387815
163	0x3e5c428e	0.21509764
164	0xbdbdbee0	-0.09264922
165	0x3e47fe90	0.19530702
166	0x3e98dab2	0.2985435
167	0xbe3be1fd	-0.18347926
168	0x3e397b1d	0.1811337
169	0xbe3d5f10	-0.18493295
170	0x3de9345f	0.11386942
171	0xbe778af1	-0.24174096
172	0xbe00604f	-0.12536739
173	0x3de745c5	0.11292604
174	0x3e0feb52	0.14054611
175	0x3e003535	0.12520297
176	0xbe0ac61e	-0.13552138
177	0xbe8099dc	-0.25117385
178	0x3db2b5d7	0.087260894
179	0xbde3f008	-0.11129767
180	0x3e4060c8	0.18786919
181	0x3e24eb59	0.16105403
182	0xbccd628a	-0.025071401
183	0xbe84b397	-0.25918266
184	0x3d12c888	0.035835773
185	0x3e6c5d8f	0.23082565
186	0x3ea2c651	0.31791928
187	0x3d1cd2d1	0.038286988
188	0x3cf1689d	0.029468829
189	0xbe448ca4	-0.19194275
190	0xbe5deeb9	-0.21673097
191	0xbe4a7927	-0.19772778
192	0x3d73ab52	0.059489556
193	0x3e218a78	0.15775478
194	0x3e14e24e	0.14539453
195	0x3d201d17	0.039090242
196	0x3d233d02	0.039853103
197	0xbd32f2ce	-0.043688588
198	0xbe57579c	-0.21029514
199	0xbdd19d87	-0.10235124
200	0x3dd5d6f2	0.10441388
201	0xbe2453f8	-0.16047657
202	0x3e424bfa	0.18974295
203	0x3e440ae4	0.1914478
204	0x3e18994c	0.14902228
205	0x3e5e7e67	0.21727906
206	0xbe8d6b92	-0.27621132
207	0x3e73ef79	0.2382182
208	0x3da2b39e	0.079444155
209	0xbe65b668	-0.22432864
210	0x3cbb6c8b	0.022878906
211	0xbe528891	-0.20559908
212	0xbe849fc8	-0.25903153
213	0x3da4c4f0	0.08045375
214	0x3bee4494	0.0072713587
215	0xbe72ad60	-0.2369895
216	0x3e88436b	0.26613936
217	0x3e95011e	0.29102415
218	0xbe124c04	-0.1428681
219	0xbe70b11d	-0.23505063
220	0x3df4abf6	0.119468614
221	0x3e19b2aa	0.15009561
222	0xbe3c4ab2	-0.18387869
223	0xbe6456d0	-0.22298741
224	0x3de0fb78	0.10985464
225	0x3e6ead1a	0.2330822
226	0xbe2e0ccd	-0.1699707
227	0x3dd27133	0.10275497
228	0xbe938506	-0.28812426
229	0x3e029fca	0.12756267
230	0x3e62138c	0.22077769
231	0x3d532772	0.05155129
232	0x3e64411b	0.22290461
233	0x3e86722c	0.2625898
234	0x3c6df6c2	0.014524164
235	0x3e688511	0.22707011
236	0x3be67a51	0.007033624
237	0xbdd1b12d	-0.10238872
238	0xbd67fa71	-0.056635324
239	0xbe5d8541	-0.21632864
240	0xbe16af36	-0.14715275
241	0x3de9ccc2	0.114160076
242	0x3dcd3952	0.100206986
243	0xbe177b8a	-0.1479322
244	0xbe7e5f64	-0.24841076
245	0x3e80706c	0.2508577
246	0xbe28319e	-0.16425177
247	0x3d22c3de	0.039737575
248	0xbdb33a2e	-0.08751331
249	0x3e5e7247	0.21723281
250	0x3e355a67	0.17710267
251	0xbe1d4062	-0.15356591
252	0xbd8c760f	-0.068584554
253	0xbda27bd6	-0.07933776
254	0xbdcf5a87	-0.101246886
255	0xbe0b7cb3	-0.13621788

linear2.weight f4 [3, 256]
0	0xbcb0319a	-0.021508027
1	0x3ccceee1	0.02501625
2	0xbd2087d5	-0.03919204
3	0xbd28cbe4	-0.04121007
4	0xbc451676	-0.012029281
5	0xbd67ec65	-0.056621928
6	0x3d7caa32	0.06168575
7	0xbb95f09e	-0.004575803
8	0xbd33a6b6	-0.04386016
9	0x3c409850	0.011755064
10	0x3b466c51	0.0030276964
11	0xbd6789f5	-0.05652805
12	0xbd4b6243	-0.049654257
13	0x3da4ef30	0.08053434
14	0xbc848360	-0.016175926
15	0x3d074afe	0.033030502
16	0x3a712041	0.00091982266
17	0x3d606520	0.05478394
18	0xbd101130	-0.03517264
19	0x3d0081fb	0.03137396
20	0x3ac86884	0.0015289937
21	0x3cb76220	0.022385657
22	0xbd120a0b	-0.03565411
23	0xbc96956f	-0.018381802
24	0xbd77f70e	-0.060538344
25	0xbd83710c	-0.06418046
26	0xbc1541fa	-0.009109968
27	0x3d239f82	0.03994704
28	0x3d374548	0.044743806
29	0x3cf78ec4	0.030219443
30	0x3ca116ea	0.019664247
31	0xbd652894	-0.0559469
32	0x3d3f353b	0.046681624
33	0x3be63d7c	0.0070263725
34	0x3d6b91b4	0.057512
35	0xbcfa9782	-0.030589823
36	0xbce10438	-0.027467832
37	0x3d01902a	0.031631626
38	0xbc1354b5	-0.008992364
39	0xbc8088b0	-0.015690178
40	0x3cf099cc	0.029370211
41	0x3d16d9d1	0.03682882
42	0xbd4be645	-0.04978015
43	0x3d2c2f70	0.042037427
44	0x3d820b9e	0.06349872
45	0xbcfa74ef	-0.030573336
46	0x3c0b0d5f	0.008487075
47	0x3cf83d8f	0.03030279
48	0x3c24cc71	0.010058508
49	0xbd2a0c97	-0.041515913
50	0x3d560297	0.052248564
51	0xbd891b79	-0.06694693
52	0xbc8b2a3e	-0.016987916
53	0x3c8e9b79	0.01740812
54	0xbd09b2fa	-0.03361795
55	0x3ca05d52	0.019575749
56	0x3c37d9ae	0.0112213325
57	0x3ca24949	0.019810336
58	0xbd3df099	-0.04637203
59	0x3c2c92cc	0.010533046
60	0xbd622ca3	-0.05521835
61	0x3d36cc7b	0.0446286
62	0xbc8ccb37	-0.017186744
63	0xbdb5c3e6	-0.08875255
64	0xbcf7a544	-0.030230172
65	0x3d35b9a4	0.044366494
66	0x3d1b0559	0.037846897
67	0x3d2971e7	0.04136839
68	0xbd20bc25	-0.03924193
69	0xbd13b07e	-0.036056988
70	0xbd205bcf	-0.039150055
71	0xbd082e18	-0.033247083
72	0xbd442e20	-0.04789555
73	0x3be043a9	0.006844003
74	0x3c7960d4	0.0152208395
75	0x3cf37db5	0.029723028
76	0xbd043fb8	-0.03228733
77	0xbbe155be	-0.0068766763
78	0x3d562e4f	0.052290257
79	0xbd009988	-0.03139642
80	0xbbc66e5a	-0.0060556354
81	0x3d50565c	0.05086361
82	0xbc94da6b	-0.018170556
83	0xbcf58477	-0.02997039
84	0xbd2404b9	-0.040043566
85	0xbd60d52e	-0.054890804
86	0x3d0a5e0d	0.0337811
87	0x3c4266e5	0.011865352
88	0xbd3415ea	-0.04396621
89	0xbcf8cb87	-0.030370487
90	0xbd715607	-0.058919933
91	0x3d2de8c8	0.042458326
92	0xbc4ab59b	-0.0123724
93	0x3ce87b64	0.02837915
94	0x3d71213c	0.058869585
95	0xbc599113	-0.013279217
96	0x3cb1a275	0.02168391
97	0xbd5c0a5a	-0.05372081
98	0xbb9d4279	-0.004799184
99	0xbd8a42d5	-0.067510284
100	0xbc2e15cc	-0.010625314
101	0x3ce6deda	0.028182436
102	0xbd3e3c3d	-0.046444166
103	0x3bda9ed5	0.0066717663
104	0xbd85e8f7	-0.06538575
105	0x3cd4efe5	0.025993297
106	0xbd555460	-0.05208242
107	0xbced76ac	-0.028987251
108	0x3bb9853d	0.005661635
109	0xbc95c2d3	-0.018281376
110	0xbd52bfde	-0.05145251
111	0xbd14b9d8	-0.036310047
112	0xbd557be5	-0.05212011
113	0x3c37c49a	0.011216307
114	0xbd856ecb	-0.06515273
115	0x3c5d02b1	0.013489411
116	0x3d95281d	0.072830416
117	0x3d568ae4	0.05237855
118	0xbd59e84a	-0.053200044
119	0xbb343c5f	-0.0027501804
120	0xbd774cbc	-0.060375914
121	0xbd035a49	-0.032068525
122	0x3c07b86f	0.0082837185
123	0x3d64e4d6	0.055882297
124	0x3d868e7e	0.06570147
125	0xbd9c947d	-0.076455094
126	0x3cf6fa3a	0.030148614
127	0xbc8be686	-0.017077696
128	0xbcb810da	-0.022468973
129	0xbcf6c05e	-0.030121025
130	0x3d0e5764	0.03475131
131	0xbcb37276	-0.021905165
132	0x3cb2550a	0.021769065
133	0x3d0669a1	0.03281558
134	0xbc19721d	-0.009365586
135	0x3d5fe38b	0.05466036
136	0xbdb18170	-0.08667266
137	0x3c3071ac	0.010769289
138	0xbd06367e	-0.03276681
139	0x3a08272b	0.0005193825
140	0xbc2ccae3	-0.010546419
141	0x3c0e8e72	0.008700954
142	0x3d300bc3	0.042979967
143	0x3cef9fc6	0.02925099
144	0xbd2575bc	-0.040395483
145	0x3d1a1c77	0.037624802
146	0xbc31aaac	-0.010843914
147	0xbd208bc9	-0.03919581
148	0x3d5bc99e	0.053659074
149	0xbc59d4db	-0.013295378
150	0xbca335b9	-0.019923078
151	0xbd4e925a	-0.05043254
152	0x3b968ae6	0.0045941947
153	0x3d51a16d	0.05117934
154	0x3d88ff11	0.06689275
155	0x3da08f11	0.07839788
156	0x3c4677b2	0.0121134985
157	0x3cbf4899	0.023350047
158	0xbc9a2d9e	-0.01882058
159	0x3d104615	0.035223085
160	0xbd5a5269	-0.05330125
161	0xbd0368de	-0.03208243
162	0x3d616830	0.055031
163	0xbd52a51f	-0.051427003
164	0xbc59bd78	-0.013289802
165	0xbd877006	-0.06613164
166	0xbd8e2530	-0.06940687
167	0xbc291666	-0.010320282
168	0x3dd6256c	0.104563564
169	0xbc239b3a	-0.009985739
170	0x3aaeb7a6	0.0013329878
171	0x3c875068	0.016517833
172	0x3c0d876e	0.008638246
173	0xbc000787	-0.007814295
174	0xbda0707e	-0.07833956
175	0x3d35e5e3	0.04440869
176	0xbcf759ab	-0.030194124
177	0xbce6e083	-0.028183227
178	0xbd7a3a17	-0.061090555
179	0x3d539266	0.05165329
180	0xbc0e083a	-0.008668954
181	0x3d2d2577	0.042272057
182	0x3d3bbb46	0.045832895
183	0xbc592808	-0.013254173
184	0xbd2ef774	-0.04271646
185	0x3cbe07b8	0.02319704
186	0x3d5cbc91	0.05389077
187	0x3bae901b	0.0053272373
188	0xbd21c42b	-0.03949372
189	0x3d3964fc	0.04526232
190	0x3cede083	0.02903772
191	0x3c95e2ac	0.018296562
192	0x3b83d72d	0.0040234537
193	0xbd96dca7	-0.07366305
194	0x3ceae885	0.028675327
195	0xbbabaf4e	-0.005239404
196	0x3cadf46d	0.021234715
197	0x3cc72740	0.024310708
198	0x3d537db2	0.051633544
199	0xbcd727c5	-0.02626408
200	0xbd8aa8cd	-0.067704774
201	0xbcd21a37	-0.025647266
202	0x3cbfb163	0.023400014
203	0x3cabcd68	0.020971969
204	0x3d5945a3	0.053044926
205	0xbd388dc8	-0.045057088
206	0x3cc0a14c	0.023514412
207	0x3d2e9702	0.04262448
208	0xbda0186e	-0.078171596
209	0xb979a083	-0.00023806286
210	0xbd0eb81e	-0.034843557
211	0x3d307dde	0.043088786
212	0xbd9fd34b	-0.07803973
213	0xbd6093bb	-0.054828387
214	0xbc23aa13	-0.009989279
215	0x3d2625ea	0.0405635
216	0xbd070600	-0.032964706
217	0xbcefe7bb	-0.029285302
218	0x3c02f9b1	0.007994101
219	0x3d33bf1d	0.04388343
220	0xbd2d38f0	-0.042290628
221	0x3d15308e	0.03642326
222	0xbc218d94	-0.009860415
223	0x3b8ae6a0	0.0042389184
224	0x3c9c7e54	0.019103207
225	0x3cc347ed	0.023838008
226	0xbd9384a6	-0.07203035
227	0xbcc877e6	-0.024471235
228	0x3c7f5d90	0.015586272
229	0xbd9f8d62	-0.077906385
230	0x3d06ee15	0.032941896
231	0x3d202d35	0.039105613
232	0x3ca5b94c	0.020229958
233	0x3d38fdf3	0.04516406
234	0xbc2caf3c	-0.010539826
235	0x3c66e961	0.014093728
236	0xbd1b54a2	-0.03792251
237	0x3d1aaaf9	0.03776071
238	0x3cf73754	0.03017775
239	0x3ccea04d	0.025222922
240	0x3cda950a	0.026682395
241	0xbda531c0	-0.0806613
242	0x3d29e57b	0.041478615
243	0xbd46f7a4	-0.048576012
244	0x3d4b2ba8	0.04960218
245	0xbd22fa2f	-0.039789375
246	0x3cf9b675	0.03048251
247	0x3a797267	0.00095156435
248	0xbcd32be3	-0.025777763
249	0xbd868779	-0.06568808
250	0xbcb97594	-0.022639073
251	0xbd6b43b7	-0.057437625
252	0x3d62226a	0.0552086
253	0xbccb5d6b	-0.024824819
254	0xbb0154a9	-0.00197343
255	0xba86fcf1	-0.0010298771

linear2.bias f4 [3]
0	0xbd755e76	-0.059904538
1	0xbd864a57	-0.06557148
2	0xbd119e7d	-0.035551537
